examples/cifar_net.pth (torch_old, 249582 bytes, 10 tensors)

conv1.weight f4 [6, 3, 5, 5]
0.17309682 0.2907413 0.33616605 0.5238994 0.2291928 0.21880484 0.27829802 0.4451154
0.40428436 0.12918346 0.0828191 0.17908739 0.06450559 -0.09649833 -0.08886463 -0.07737584
-0.018949516 -0.12490813 -0.3233005 -0.2175059 -0.015544486 -0.14325158 -0.25163615 -0.25223273
0.0022854975 -0.4160203 -0.16112706 -0.08203129 -0.21947803 -0.45376998 -0.30082127 -0.027754122
-0.0039020863 -0.246275 -0.42447367 -0.038784564 -0.22110713 -0.26721242 -0.29522094 -0.4931641
-0.10478881 -0.06844122 -0.21303007 -0.34014365 -0.23503749 -0.0031246431 -0.09732978 -0.009610119
0.10600798 0.12715916 -0.106003396 -0.001780246 0.10623604 -0.0058408966 -0.18219656 -0.037472416
0.15100738 0.28404126 0.14445135 -0.097379684 0.1144654 0.15251969 -0.014633083 -0.19890061
-0.25589043 0.17178956 -0.034239832 -0.05739942 -0.08608069 0.0005125176 0.20104143 0.18025357
0.20486419 0.06881861 0.15056095 -0.13563615 -0.25614986 -0.1865283 -0.122860536 -0.064996466
-0.17104203 0.028093692 0.007234967 0.04985878 0.087672494 -0.08400741 -0.025564946 0.11977054
0.17891327 -0.0216185 0.05260268 0.092900634 0.061186697 0.13417129 -0.043738 -0.017280161
0.048852004 0.039712157 0.111016415 0.14441724 -0.15351117 -0.07767611 -0.13350269 -0.0049081594
0.020760244 -0.047189668 -0.10086246 -0.112171985 0.032169748 0.0749775 -0.101628095 0.060340535
0.16819212 0.10772337 0.019573936 -0.028387813 0.056729198 0.12094408 0.077541694 0.009449501
0.09073722 0.13690887 0.16714032 -0.07257392 -0.08551484 -0.197465 -0.17671964 -0.030411746
0.11665747 0.017462797 -0.14957555 -0.037461888 -0.024671424 0.06460822 0.18123657 -0.19370008
-0.07099126 0.07988224 0.027833316 0.12541194 -0.07235914 0.07650379 0.10737691 0.13598186
0.13650991 0.07975645 0.15573847 0.11405582 0.0575407 -0.02300732 -0.073211744 -0.20306255
-0.37592348 -0.3872884 -0.12246147 0.3206379 0.38098127 0.32112148 0.23196724 0.16644092
-0.030648109 0.43199864 0.44823825 0.27137694 0.04129324 -0.24935721 -0.31264883 -0.3898199
-0.30356085 -0.21043427 -0.07157467 -0.15794513 -0.07788687 -0.021788966 -0.12715726 -0.12475207
-0.2967397 -0.11863558 -0.17453945 0.035643965 0.25240433 0.23332533 0.38684177 0.2875382
0.20452957 0.03798232 0.32616872 0.49331164 0.49941033 0.26784217 -0.08437707 -0.13655594
-0.21529263 -0.13306665 -0.20140502 -0.07406894 -0.12887774 -0.15300968 -0.08868628 0.015024665
0.08177714 -0.24108694 -0.32326627 -0.25001776 -0.0837103 0.13949288 -0.046665356 0.18737252
0.005192239 0.13774952 -0.13714732 0.08463851 0.3674257 0.16128899 0.0739829 -0.14217296
-0.19455817 -0.23111784 -0.25368586 -0.08708293 0.20589782 -0.0583202 -0.10301572 0.021449503
0.055390086 -0.15903297 -0.16469483 -0.21762809 -0.082961515 -0.025492135 -0.37038428 -0.33579272
-0.23473853 -0.2645228 -0.14498618 -0.43441373 -0.43107376 -0.3784211 -0.40860394 -0.42182982
-0.10820381 -0.020621944 -0.1513322 -0.16932702 -0.13201989 0.1335791 0.11071718 -0.038257193
-0.12092548 -0.13889003 0.12439778 0.028240679 0.1655386 0.016881704 0.08347742 0.014087489
00000000: 4b40 313e 0bdc 943e f51d ac3e 451e 063f
00000010: 84b1 6a3e 600e 603e 147d 8e3e 2ae6 e33e
00000020: 5cfe ce3e ab48 043e 0f9d a93d af62 373e
00000030: 821b 843d eba0 c5bd a9fe b5bd 3977 9ebd
00000040: 043c 9bbc d5cf ffbd a587 a5be deb9 5ebe
00000050: 4dae 7ebc 8bb0 12be 74d6 80be a624 81be
00000060: 49c8 153b 9d00 d5be 7efe 24be 0500 a8bd
00000070: d9be 60be 8a54 e8be 3f05 9abe 9d5c e3bc
00000080: 25ba 7fbb 832f 7cbe 9d54 d9be 90dc 1ebd
00000090: e869 62be 11d0 88be 3327 97be 0180 fcbe
000000a0: 849b d6bd e92a 8cbd 8e24 5abe 4f27 aebe
000000b0: abad 70be d0c6 4cbb d654 c7bd c373 1dbc
000000c0: b61a d93d 0336 023e 4f18 d9bd 2557 e9ba
000000d0: 4892 d93d fe64 bfbb bc91 3abe ad7c 19bd
000000e0: aea1 1a3e db6d 913e 0eeb 133e 006f c7bd
000000f0: d66c ea3d 1f2e 1c3e 99bf 6fbc 9aac 4bbe
00000100: 1204 83be 9ae9 2f3e 113f 0cbd a71b 6bbd
00000110: 134b b0bd 795a 063a cedd 4d3e 6494 383e
00000120: ebc7 513e c5f0 8c3d a62c 1a3e 34e4 0abe
00000130: 1326 83be 4601 3fbe 4e9e fbbd de1c 85bd
00000140: a425 2fbe be24 e63c 4d13 ed3b b838 4c3d
00000150: a38d b33d 140c acbd 946d d1bc 424a f53d
00000160: 0a35 373e 4819 b1bc e875 573d b042 be3d
00000170: e79e 7a3d 3364 093e 9e26 33bd 208f 8dbc
00000180: 0a19 483d 37a9 223d 935c e33d 1de2 133e
00000190: 0832 1dbe a714 9fbd eeb4 08be a0d4 a0bb
000001a0: 6311 aa3c f449 41bd fa90 cebd 6dba e5bd
000001b0: 6dc4 033d ce8d 993d 6422 d0bd a327 773d
000001c0: 8e3a 2c3e 129e dc3d 8559 a03c 8f8d e8bc
000001d0: e05c 683d 88b1 f73d 2ece 9e3d 14d2 1a3c
000001e0: 70d4 b93d d731 0c3e d526 2b3e a3a1 94bd
000001f0: 6822 afbd 4434 4abe fef5 34be 0e22 f9bc
00000200: 1dea ee3d 240e 8f3c 552a 19be a371 19bd
00000210: ba1b cabc 5051 843d 1496 393e 5059 46be
00000220: de63 91bd 4d99 a33d b202 e43c fd6b 003e
00000230: 0731 94bd 05ae 9c3d 6de8 db3d d43e 0b3e
00000240: 41c9 0b3e 5a57 a33d e879 1f3e 1996 e93d
00000250: ccaf 6b3d d979 bcbc 0af0 95bd a1ef 4fbe
00000260: 0b79 c0be aa4a c6be 14cd fabd a72a a43e
00000270: fa0f c33e 096a a43e d288 6d3e 7d6f 2a3e
00000280: be11 fbbc ed2e dd3e 7c7f e53e ebf1 8a3e
00000290: 1a23 293d 7f57 7fbe 8213 a0be 7996 c7be
000002a0: 546c 9bbe 157c 57be be95 92bd 5ebc 21be
000002b0: 2783 9fbd c67e b2bc 8335 02be 037e ffbd
000002c0: 44ee 97be 36f7 f2bd 78ba 32be 68ff 113d
000002d0: 243b 813e d6ec 6e3e 2010 c63e 3538 933e
000002e0: 3370 513e 5993 1b3d 96ff a63e 5893 fc3e
000002f0: b6b2 ff3e 9c22 893e e3cd acbd 52d5 0bbe
00000300: ac75 5cbe a042 08be 1e3d 4ebe 75b1 97bd
00000310: 87f8 03be 92ae 1cbe 27a1 b5bd 032a 763c
00000320: c67a a73d 7fdf 76be 2883 a5be 5402 80be
00000330: 4e70 abbd 39d7 0e3e 2c24 3fbd 95de 3f3e
00000340: a823 aa3b 360e 0d3e 5970 0cbe f556 ad3d
00000350: 391f bc3e f128 253e 5984 973d ca95 11be
00000360: 423a 47be 28aa 6cbe 1de3 81be 8958 b2bd
00000370: e1d6 523e 29e1 6ebd e8f9 d2bd deb6 af3c
00000380: b7e0 623d 8ad9 22be c3a5 28be e6d9 5ebe
00000390: bae7 a9bd e2d4 d0bc 02a3 bdbe 06ed abbe
000003a0: 4c5f 70be 886f 87be 4277 14be 7a6b debe
000003b0: b3b5 dcbe 69c0 c1be 8934 d1be 14fa d7be
000003c0: f699 ddbd 5aef a8bc d4f6 1abe 1064 2dbe
000003d0: 3930 07be f6c8 083e b0bf e23d 93b3 1cbd
000003e0: c7a7 f7bd 3039 0ebe 43c4 fe3d ff58 e73c
000003f0: f382 293e 804b 8a3c 36f6 aa3d 36cf 663c

conv1.bias f4 [6]
-0.5435042 0.01914254 -0.47316247 0.31922725 0.05052419 0.14074689
00000000: 1723 0bbf d1d0 9c3c 5a42 f2be c171 a33e
00000010: 74f2 4e3d f41f 103e

conv2.weight f4 [16, 6, 5, 5]
0.06228194 -0.09059381 0.03863897 0.18086469 0.11344018 -0.06279674 0.023507569 0.073401555
0.03146874 -0.09870323 0.06499797 0.07089366 -0.0379875 -0.015081755 -0.112800844 0.098956816
0.0054372456 0.006264874 -0.12394256 -0.12287529 0.07215846 0.005337903 -0.1198129 -0.034416195
-0.07487247 -0.0068047596 -0.14956084 -0.17081451 -0.19468752 0.009033437 -0.12681416 -0.16412021
-0.19946301 0.005468547 0.2053008 -0.18769076 -0.18115744 0.052003946 0.106782675 0.19586413
-0.1441436 0.055318274 0.15290779 0.22048299 0.0355446 0.10018974 0.21893136 0.2637649
0.029451456 0.03955998 -0.06414178 -0.12883176 0.077540986 0.08655146 -0.020330045 0.019625865
0.10587729 0.05534308 -0.067641094 -0.058016375 -0.0010274507 -0.06957246 -0.11170097 -0.0022900058
0.09816011 0.018989302 -0.1446423 -0.04741699 -0.00069286703 0.008367676 -0.044769265 0.07502943
-0.004494178 -0.020493843 -0.01496725 -0.061510228 -0.11371193 -0.092297494 -0.12713818 0.027932214
-0.12280395 -0.23736581 -0.15192495 0.119812235 0.18215455 -0.19056806 -0.20598854 -0.04113943
0.14041992 0.020921819 -0.09326728 0.0069830664 0.111474335 0.035261307 0.15630633 0.12738353
0.20547304 0.1638339 0.062315777 0.06413239 0.018035434 0.07276323 0.0433002 -0.099903494
0.06904608 0.066588186 -0.059436683 -0.064950444 -0.07046461 0.06968595 -0.117468365 -0.06952218
-0.1098113 -0.058861557 0.0010504391 -0.12584816 -0.029482784 -0.03174106 -0.05448674 0.051640052
-0.04320925 0.043754373 0.09910897 0.04492421 0.011117633 0.14085956 0.019095115 -0.06853784
0.033695705 -0.02392051 0.07536505 0.04949535 0.035393048 0.010802279 -0.086459324 0.06657324
0.0808815 -0.008594549 -0.16676316 -0.06921632 0.16825886 0.01731493 -0.07657712 -0.11151907
0.01520298 -0.018523483 -0.18536767 -0.18817073 -0.09547203 -0.059257034 0.011994486 -0.0057068053
-0.08008705 -0.0028687066 -0.09286162 -0.04736926 -0.03333886 0.002513999 -0.08884757 -0.088910975
-0.0658945 -0.045329474 -0.06219371 0.08666386 -0.034378853 -0.13403076 -0.076139495 -0.040790014
-0.009589878 0.12363762 -0.059435464 -0.008252269 -0.08524396 0.027797617 -0.045354113 -0.18237877
-0.1413203 -0.08288542 -0.005083414 -0.0057714237 -0.060466073 -0.073579475 -0.05904388 -0.15166691
-0.06041837 0.10024574 0.03346002 -0.12852764 -0.08866439 -0.11387767 0.034139726 -0.029938767
-0.028181925 -0.028691573 -0.09242509 0.14846542 -0.06563191 -0.017749084 0.002289715 -0.08427089
-0.037908155 -0.0073391437 0.049256746 0.04135297 0.060304813 -0.07240288 -0.06164537 -0.1131001
0.020194285 0.014985117 -0.0030740425 0.009158044 -0.12914032 -0.06519866 0.03802188 0.05435179
-0.0644316 -0.046786513 -0.051792223 0.014641085 0.0011799058 -0.04128746 0.07528707 0.09066747
0.038246304 0.10474465 -0.03772538 -0.09235475 -0.15265556 -0.14982878 0.12642533 0.015451629
-0.042495534 -0.184996 -0.15583755 0.0907138 0.11395403 0.030393798 -0.085227504 -0.09885725
-0.029780302 -0.04079551 0.08378266 0.10110804 0.0999023 0.037990537 0.11372643 0.06207291
0.0071894587 0.029214742 0.13783756 -0.11184441 -0.04653326 -0.08107612 -0.012764965 0.15076366
00000000: 591b 7f3d 3f89 b9bd e643 1e3d 9834 393e
00000010: 5353 e83d 949b 80bd f292 c03c 8e53 963d
00000020: 5ee5 003d eb24 cabd a81d 853d b230 913d
00000030: c898 1bbd 7719 77bc 2104 e7bd dfa9 ca3d
00000040: ec2a b23b 9249 cd3b 99d5 fdbd 0aa6 fbbd
00000050: d1c7 933d 93e9 ae3b 7760 f5bd fff7 0cbd
00000060: bd56 99bd 76fa debb 7a26 19be 00ea 2ebe
00000070: 2a5c 47be fb00 143c 92db 01be 210f 28be
00000080: 0840 4cbe 7f31 b33b 5f3a 523e 0232 40be
00000090: 5681 39be 1702 553d e0b0 da3d 9b90 483e
000000a0: 619a 13be 6a95 623d dc93 1c3e 4bc6 613e
000000b0: 3797 113d 4730 cd3d 8b2f 603e 310c 873e
000000c0: 2e44 f13c a509 223d c45c 83bd 79ec 03be
000000d0: cfcd 9e3d e441 b13d 328b a6bc 6cc6 a03c
000000e0: 31d6 d83d 6daf 623d 6a87 8abd 94a2 6dbd
000000f0: 86ab 86ba 027c 8ebd 7ac3 e4bd ec13 16bb
00000100: 2b08 c93d 748f 9b3c 1c1d 14be 5138 42bd
00000110: 85a1 35ba 9418 093c fa5f 37bd 08a9 993d
00000120: e643 93bb b4e2 a7bc 3239 75bc 26f2 7bbd
00000130: cde1 e8bd 7806 bdbd 8330 02be 19d2 e43c
00000140: a380 fbbd 0610 73be 3792 1bbe 1e60 f53d
00000150: b986 3a3e 4624 43be a9ee 52be d281 28bd
00000160: 3dca 0f3e 3c64 ab3c ea02 bfbd 35d2 e43b
00000170: a84c e43d 296e 103d c40e 203e d470 023e
00000180: 8667 523e 13c4 273e d43e 7f3d d857 833d
00000190: 0cbf 933c e304 953d 8d5b 313d 349a ccbd
000001a0: 0868 8d3d 635f 883d e173 73bd bd04 85bd
000001b0: c04f 90bd 82b7 8e3d 4193 f0bd a561 8ebd
000001c0: bfe4 e0bd d118 71bd e3ae 893a 57de 00be
000001d0: e185 f1bc ea02 02bd 7d2d 5fbd 8584 533d
000001e0: 2ffc 30bd c937 333d a5f9 ca3d 7302 383d
000001f0: bc26 363c 7d3d 103e 5c6d 9c3c 915d 8cbd
00000200: 8204 0a3d f2f4 c3bc fe58 9a3d a3bb 4a3d
00000210: 4df8 103d 0bfc 303c 9611 b1bd 8d57 883d
00000220: 33a5 a53d 27d0 0cbc f6c3 2abe 49c1 8dbd
00000230: 0d4c 2c3e 0ad8 8d3c 77d4 9cbd 1c64 e4bd
00000240: eb15 793c 8fbe 97bc 06d1 3dbe d4af 40be
00000250: d786 c3bd 81b7 72bd 8584 443c 2700 bbbb
00000260: ae04 a4bd e900 3cbb 3c2e bebd 4506 42bd
00000270: 548e 08bd e7c1 243b b7f5 b5bd f516 b6bd
00000280: b2f3 86bd 66ab 39bd d5be 7ebd d27c b13d
00000290: d7d0 0cbd 5c3f 09be 06ef 9bbd 6e13 27bd
000002a0: dd1e 1dbc b835 fd3d 9a72 73bd 8634 07bc
000002b0: 6394 aebd d4b7 e33c 3cc5 39bd 80c1 3abe
000002c0: 45b6 10be d5bf a9bd c492 a6bb 361e bdbb
000002d0: 46ab 77bd d6b0 96bd ffd7 71bd 924e 1bbe
000002e0: 4179 77bd a34d cd3d 600d 093d c09c 03be
000002f0: ad95 b5bd b238 e9bd 19d6 0b3d 2542 f5bc
00000300: c8dd e6bc 970a ebbc 5e49 bdbd 5207 183e
00000310: 066a 86bd 8766 91bc 0b0f 163b 3796 acbd
00000320: 9545 1bbd 337d f0bb 71c1 493d bb61 293d
00000330: 2e02 773d f647 94bd db7f 7cbd 06a1 e7bd
00000340: 7c6e a53c 2384 753c e075 49bb 9f0b 163c
00000350: 5c3d 04be e086 85bd d5bc 1b3d fc9f 5e3d
00000360: b7f4 83bd 37a3 3fbd 1524 54bd 29e1 6f3c
00000370: 12a7 9a3a 0a1d 29bd 1b30 9a3d deaf b93d
00000380: 28a8 1c3d 5d84 d63d ee85 1abd 7d24 bdbd
00000390: bd51 1cbe b76c 19be a475 013e d428 7d3c
000003a0: cc0f 2ebd 976f 3dbe e193 1fbe 28c8 b93d
000003b0: bb60 e93d 6afc f83c c28b aebd ab75 cabd
000003c0: d2f5 f3bc 3119 27bd 3e96 ab3d bb11 cf3d
000003d0: 9499 cc3d f79b 1b3d 67e9 e83d 2a40 7e3d
000003e0: 8d95 eb3b c153 ef3c 4a25 0d3e af0e e5bd
000003f0: a999 3ebd 3d0b a6bd 2524 51bc ca61 1a3e

conv2.bias f4 [16]
-0.114508994 -0.26514298 -0.048072044 0.265044 -0.4509043 0.11180667 -0.06393357 0.8116088
0.08604732 0.46106416 0.0901547 0.59138244 -0.35283953 -0.4072592 0.072864555 0.11189238
00000000: b183 eabd d2c0 87be 31e7 44bd d9b3 873e
00000010: eedc e6be e5fa e43d 9bef 82bd 98c5 4f3f
00000020: 9439 b03d 9a10 ec3e 07a3 b83d d764 173f
00000030: 62a7 b4be 4784 d0be 033a 953d d527 e53d

fc1.weight f4 [120, 400]
0.045858875 0.0650038 0.060568035 -0.005245383 0.040548056 0.030694446 0.045806885 0.023679886
-0.037285805 -0.058782313 0.015127488 -0.045813438 -0.028735407 -0.07457874 -0.018740153 -0.05011145
-0.024539974 -0.071707964 0.0036959606 0.059247162 -0.07361223 -0.083165646 0.020812871 0.035894357
0.10607163 -0.012590003 0.03869483 0.01277526 0.01779557 -0.0051063295 -0.076130554 -0.017391238
0.0048110895 0.026290333 -0.038956083 0.048947938 0.0017230485 -0.017652888 0.027340878 -0.008951846
0.06666882 -0.026130287 -0.02535576 0.06813038 -0.0074015376 0.02451062 0.004197399 0.011979482
-0.026840828 0.011032527 -0.044749886 0.012377015 0.022828327 0.019212443 0.09068241 0.04359981
-0.029436441 0.017251668 0.074252084 0.007356763 -0.0379678 -0.06535713 0.016214782 0.008533993
-0.011767624 -0.002278977 -0.08241368 -0.11195577 -0.075226046 -0.05438819 0.00070764753 -0.024691185
-0.027410615 0.01087871 0.028079905 -0.029167017 -0.0318732 -0.00841499 0.011744964 -0.065773614
-0.064013936 -0.07101649 -0.059790205 -0.013288427 -0.1029724 -0.1014053 -0.028289005 -0.050653152
-0.10189231 -0.045513842 -0.03634176 -0.017099313 0.051187076 0.03449514 0.020186063 0.0029813973
-0.06431177 0.013113662 0.03193312 -0.0017652179 -0.05475157 -0.038979646 -0.0022317106 -0.03981362
0.04081424 0.071631126 0.05660537 0.024569351 0.0760911 0.061602294 0.029598627 -0.0046373773
0.034254868 0.029150588 -0.0061742216 0.015939832 -0.0229768 0.028673481 -0.048870917 0.029891493
-0.018911071 -0.03319913 -0.028422557 -0.021539269 -0.047605064 0.0042221164 0.01981978 -0.020910464
0.005623274 -0.019138671 -0.04366799 0.013827726 -0.055449888 -0.045716267 -0.059269026 0.0027084665
0.023039363 0.027024927 -0.041371685 -0.01972237 0.026166296 -0.0038680173 0.0073007727 0.024638511
0.04540198 0.007948019 0.009436639 0.03951619 -0.0074589364 -0.040804885 -0.004250296 -0.015839405
-0.008051086 -0.06541459 -0.0066068135 -0.010415219 -0.020561513 0.006057741 -0.01400483 -0.03844986
0.05194522 0.027609877 -0.008456047 0.0059898966 -0.012871985 -0.007944268 0.028020335 0.07115665
0.081296064 0.0056125293 -0.057323378 -0.0069879154 0.051960338 -0.007636075 -0.050705135 -0.06013439
-0.056070153 -0.00883319 -0.07012554 -0.0392598 -0.088066526 -0.026960392 -0.057335872 -0.03151514
-0.049110893 -0.06437635 -0.076573834 -0.071739584 -0.05515367 -0.07360954 -0.01621389 -0.022239411
-0.0323487 -0.06556529 -0.0022868726 -0.030179711 -0.025991192 0.018081708 -0.07286233 -0.0067654713
0.051133662 0.01514445 -0.0372166 0.04791457 0.01350127 0.06758801 0.04303779 0.06863669
-0.027647931 0.0211515 -0.06487512 -0.0012329583 0.023862472 -0.071608394 0.03739966 -0.028084494
0.004210854 -0.0014135607 -0.04579004 0.0421466 0.010183849 -0.009169636 0.035544872 -0.009250775
0.08149946 0.021541936 -0.020177783 -0.009041698 0.0573416 0.07226538 0.004872102 0.03588307
0.06929783 -0.02158415 0.036999654 0.04289918 -0.013568533 0.06538472 -0.015207776 -0.010937598
0.024297392 -0.002132891 -0.0047037397 0.0033929283 -0.02775448 0.042225737 0.01972457 -0.05436016
-0.036146507 -0.048113033 -0.008293899 -0.04915921 -0.041499425 -0.059455894 -0.051237237 -0.04984806
00000000: 84d6 3b3d b620 853d 3016 783d 76e1 abbb
00000010: b815 263d eb72 fb3c 00a0 3b3d 52fc c13c
00000020: 00b9 18bd b9c5 70bd 49d9 773c dfa6 3bbd
00000030: 8466 ebbc bdbc 98bd f384 99bc aa41 4dbd
00000040: 0e08 c9bc a0db 92bd ee37 723b 27ad 723d
00000050: 02c2 96bd c052 aabd c17f aa3c f605 133d
00000060: 153c d93d 4d46 4ebc 787e 1e3d 534f 513c
00000070: 04c8 913c ff52 a7bb 56ea 9bbd 1278 8ebc
00000080: 58a6 9d3b d35e d73c 6a90 1fbd a27d 483d
00000090: ead7 e13a ca9c 90bc faf9 df3c c3aa 12bc
000000a0: aa89 883d 2f0f d6bc e2b6 cfbc f187 8b3d
000000b0: 9988 f2bb 7fca c83c 568a 893b 9745 443c
000000c0: 4ce1 dbbc c6c1 343c a84b 37bd f7c8 4a3c
000000d0: 7902 bb3c 6a63 9d3c b3b7 b93d b795 323d
000000e0: b124 f1bc 5f53 8d3c 7a11 983d 0011 f13b
000000f0: 2084 1bbd f5d9 85bd ddd4 843c 29d2 0b3c
00000100: fecc 40bc e45a 15bb 81c8 a8bd 1149 e5bd
00000110: 1d10 9abd 27c6 5ebd 6c81 393a 2b45 cabc
00000120: 3a8c e0bc 9e3c 323c d407 e63c abef eebc
00000130: 798d 02bd 07df 09bc f36d 403c 51b4 86bd
00000140: bd19 83bd 1871 91bd 93e6 74bd b4b7 59bc
00000150: 32e3 d2bd 95ad cfbd 58be e7bc ae79 4fbd
00000160: eaac d0bd b96c 3abd 19db 14bd dc13 8cbc
00000170: 8aa9 513d c74a 0d3d 3e5d a53c 8c63 433b
00000180: e4b5 83bd afda 563c 4ecc 023d e25e e7ba
00000190: 2f43 60bd 1fa9 1fbd e441 12bb 9b13 23bd
000001a0: d52c 273d 57b3 923d 08db 673d aa45 c93c
000001b0: a7d5 9b3d b052 7c3d d278 f23c 24f5 97bb
000001c0: d54e 0c3d 37cd ee3c 2051 cabb 4094 823c
000001d0: d839 bcbc a6e4 ea3c df2c 48bd 01df f43c
000001e0: 64eb 9abc d0fb 07bd 6cd6 e8bc 1f73 b0bc
000001f0: 87fd 42bd ae59 8a3b 175d a23c 6c4c abbc
00000200: 7143 b83b b4c8 9cbc 35dd 32bd b08d 623c
00000210: 6c1f 63bd fb40 3bbd 14c4 72bd 8780 313b
00000220: 0cbd bc3c 6163 dd3c 5b75 29bd cf90 a1bc
00000230: b35a d63c 907e 7dbb 523b ef3b b4d6 c93c
00000240: 6df7 393d 6838 023c 229c 1a3c badb 213d
00000250: 186a f4bb 0623 27bd 1146 8bbb a4c1 81bc
00000260: b4e8 03bc 16f8 85bd f87d d8bb 98a4 2abc
00000270: 9e70 a8bc 0480 c63b 8474 65bc 9a7d 1dbd
00000280: 83c4 543d 1c2e e23c 3b8b 0abc e546 c43b
00000290: 05e5 52bc ad28 02bc e78a e53c 94ba 913d
000002a0: 8d7e a63d 4fe9 b73b ebcb 6abd e2fa e4bb
000002b0: 5dd4 543d 0a38 fabb 30b0 4fbd 7a4f 76bd
000002c0: d1a9 65bd 16b9 10bc fb9d 8fbd e2ce 20bd
000002d0: 395c b4bd 0adc dcbc 05d9 6abd 0516 01bd
000002e0: 8128 49bd bfd7 83bd bed2 9cbd 34ec 92bd
000002f0: d1e8 61bd 99c0 96bd fed2 84bc 6d2f b6bc
00000300: 1280 04bd 1847 86bd 5bdf 15bb 713b f7bc
00000310: 7beb d4bc 1720 943c d838 95bd e3b0 ddbb
00000320: 8871 513d 6d20 783c 6f70 18bd 1142 443d
00000330: 6e34 5d3c 956b 8a3d 6548 303d 6591 8c3d
00000340: ea7d e2bc e945 ad3c 3fdd 84bd 379b a1ba
00000350: 3b7b c33c 6ca7 92bd 6330 193d 7411 e6bc
00000360: 34fb 893b 3a47 b9ba 568e 3bbd eaa1 2c3d
00000370: 29da 263c 3e3c 16bc 8097 113d 9090 17bc
00000380: 30e9 a63d b778 b03c e14b a5bc a123 14bc
00000390: 07df 6a3d dfff 933d 27a6 9f3b 20fa 123d
000003a0: 05ec 8d3d 3ed1 b0bc f38c 173d 0db7 2f3d
000003b0: 8d4e 5ebc 6de8 853d 092a 79bc 9c33 33bc
000003c0: 530b c73c f9c7 0bbb d421 9abb e45b 5e3b
000003d0: 5d5d e3bc e5f4 2c3d 6c95 a13c c2a8 5ebd
000003e0: 5c0e 14bd 2c12 45bd 22e3 07bc 2b5b 49bd
000003f0: 4dfb 29bd 0688 73bd 23de 51bd 7b2d 4cbd

fc1.bias f4 [120]
-0.009592132 -0.006407609 0.04396482 -0.10525429 -0.08613294 0.055722073 -0.020034922 -0.05304928
0.06644626 -0.041117657 -0.21540001 -0.040524665 0.18973598 -0.17359675 0.03478137 0.004180618
0.05725397 0.13440196 0.0030189182 0.035429932 -0.025839195 0.10013996 0.09244904 0.053580914
0.12579255 -0.014160082 0.010279987 0.15006593 -0.008775787 0.060498867 -0.054108415 0.034784943
-0.13645494 -0.004750152 -0.06287545 -0.061137754 0.0074190777 0.16409959 0.057065364 -0.030794777
-0.03967105 -0.012384119 0.11454441 0.042868774 0.1638436 -0.01139162 0.014956522 0.009803853
0.07409037 0.10027601 -0.0015107357 -0.03658001 -0.025989352 0.013280211 0.044018593 -0.033037778
0.048189506 -0.035483375 0.06776198 0.12026477 0.11045515 0.0018683528 -0.06877667 -0.018736172
0.038224652 0.03712907 0.012561313 -0.052768428 0.057208538 0.22372505 0.044997457 0.0015468606
0.008474297 -0.036554266 -0.020035794 0.007699656 -0.022941615 -0.026174102 -0.09075774 -0.04252995
0.11527583 -0.006735791 0.0003659274 0.11947555 -0.0039862804 -0.029590249 -0.18889326 0.052739266
0.13169841 0.056937914 0.09626086 -0.026660245 0.079277605 -0.014105758 0.18266332 0.034888167
0.0242133 -0.11972401 -0.08980624 0.00019758697 0.12248081 -0.053347934 0.07522402 -0.07371876
0.2193471 0.043374155 0.017337952 0.0052040336 -0.10273958 0.1775237 0.020109497 0.025796901
-0.055430498 0.10262737 -0.10442335 0.023164904 0.14352114 0.02242984 0.020036679 -0.063486524
00000000: 5128 1dbc ecf6 d1bb 7514 343d 908f d7bd
00000010: 7866 b0bd d43c 643d 4720 a4bc 344a 59bd
00000020: fa14 883d fd6a 28bd d291 5cbe 31fd 25bd
00000030: 264a 423e 59c3 31be e976 0e3d 91fd 883b
00000040: 2483 6a3d aba0 093e 0bd9 453b fa1e 113d
00000050: b8ac d3bc 2e16 cd3d ec55 bd3d a977 5b3d
00000060: c3cf 003e b0ff 67bc 646d 283c e2aa 193e
00000070: 52c8 0fbc a9cd 773d c9a0 5dbd a87a 0e3d
00000080: d8ba 0bbe 2aa7 9bbb d8c4 80bd 956b 7abd
00000090: bc1b f33b b909 283e 5fbd 693d 5445 fcbc
000000a0: 1c7e 22bd c3e6 4abc 4296 ea3d 2b97 2f3d
000000b0: 9ec6 273e eba3 3abc 330c 753c 57a0 203c
000000c0: b1bc 973d 825d cd3d e103 c6ba ecd4 15bd
000000d0: 9fe7 d4bc 3e95 593c d74c 343d 9f52 07bd
000000e0: 5c62 453d 0457 11bd cbc6 8a3d 604d f63d
000000f0: 4f36 e23d 84e3 f43a c8da 8cbd 9a7c 99bc
00000100: 7491 1c3d a714 183d f7cd 4d3c b523 58bd
00000110: 8053 6a3d 2e18 653e 414f 383d 07c0 ca3a
00000120: c7d7 0a3c edb9 15bd 1b22 a4bc 654d fc3b
00000130: 0ef0 bbbc 126b d6bc 32df b9bd e333 2ebd
00000140: bc15 ec3d e9b7 dcbb f2d9 bf39 99af f43d
00000150: 589f 82bb 4067 f2bc 3c6d 41be 2105 583d
00000160: f3db 063e bb37 693d 6a24 c53d 9666 dabc
00000170: 4c5c a23d d61b 67bc 180c 3b3e e5e6 0e3d
00000180: f85a c63c dd31 f5bd 55ec b7bd 592f 4f39
00000190: 38d7 fa3d 5d83 5abd 0d0f 9a3d dcf9 96bd
000001a0: 879c 603e 19a9 313d 5208 8e3c 9986 aa3b
000001b0: 2169 d2bd c6c8 353e acbc a43c 0654 d33c
000001c0: 170b 63bd 4c2e d23d e9db d5bd 53c4 bd3c
000001d0: 35f7 123e c9be b73c f623 a43c 3905 82bd

fc2.weight f4 [84, 120]
0.12653325 -0.043003827 0.018269192 -0.15721367 0.031699378 0.071824044 -0.10500411 -0.116954215
0.030628847 -0.0061490694 0.13621001 0.114815615 -0.008518602 0.10665295 0.061885837 0.043951802
-0.07065922 -0.030478444 0.06673809 0.07993517 0.016512847 -0.032692272 -0.11480365 0.011432283
-0.059893083 0.030386807 -0.069539785 -0.031335194 -0.08436862 0.1006886 0.07054875 0.103007615
-0.037887923 0.07221202 0.0027448465 0.0032268288 0.025411272 -0.07760416 0.0314937 0.0057364875
0.0034377056 0.0011970232 0.0029385097 -0.07189136 0.11251042 -0.102934994 -0.068774894 -0.0913023
0.026062882 -0.084270865 -0.07309246 0.07403848 0.015743116 -0.00043334666 0.07465191 0.05368942
0.01305915 -0.013739279 -0.021372879 0.010066815 -0.025679637 -0.020833973 -0.029109718 0.013604153
-0.0117990235 0.042279758 -0.03635354 0.04642564 0.14122605 -0.11064605 -0.069955885 0.008093964
0.02950344 0.0009067242 -0.0032578963 0.004050379 0.0024336793 0.020076053 0.038110625 0.11985277
0.10740695 0.019176736 -0.052598465 -0.05397862 -0.021322284 -0.10104135 0.025166256 -0.029909829
-0.019569624 0.06345108 -0.11785916 -0.12052485 0.07877462 -0.03826285 -0.065875135 0.03803987
0.01944107 0.13700023 0.03824529 0.07611379 -0.110596105 -0.066971086 0.035984658 -0.05900345
-0.10447798 0.056616507 0.07133234 -0.07374035 -0.03208397 -0.0135804955 0.1038795 -0.04346916
-0.07747098 -0.085804224 0.00315373 -0.063171 0.06129112 0.15491186 0.10256046 -0.10287314
0.028119339 -0.028660128 0.022967447 0.16391939 0.00927166 0.05145825 -0.051653855 0.048236202
-0.03562302 -0.009724453 0.05604255 -0.037876632 -0.13516611 -0.0009973677 -0.091502026 0.004582809
-0.07497978 -0.03255436 0.051421877 -0.065876566 -0.06181613 -0.01574596 -0.024179393 0.07142678
0.056978732 -0.014463711 -0.052493565 -0.08132788 0.05392351 -0.15352933 -0.036969215 -0.11953856
-0.0859743 -0.11550629 -0.05876548 0.09971683 -0.0673586 -0.053614985 0.06012553 0.034618214
0.095491655 -0.06967366 -0.13294084 0.026489869 0.029417327 0.04095285 -0.013911916 -0.03596104
-0.0005130392 -0.034894045 -0.0057891808 0.06739866 0.030976942 0.011978545 -0.06412177 -0.027560364
0.07484325 -0.002570296 0.080853835 0.0715883 0.044590358 -0.01598484 0.012011928 0.07520237
-0.005572516 -0.056070868 -0.03995296 -0.09898156 -0.026091106 0.08268304 -0.07215156 -0.026971266
0.06758309 -0.05892416 -0.08389347 -0.11204685 0.12543246 0.008013419 -0.039890792 0.08806112
-0.14259097 0.04557472 0.018779235 0.017604522 0.07589619 0.05063625 -0.08979652 0.15174276
-0.037956603 -0.07233559 -0.04908744 0.08567782 0.0073624877 -0.063437656 -0.102484256 -0.01987603
-0.10705953 -0.055276427 0.0786623 0.06157184 0.07373072 -0.0076857274 -0.13663192 0.06021359
0.027892224 -0.12715912 0.059650812 0.08303602 -0.07657087 -0.037377156 -0.030968677 0.013015478
0.05715633 -0.097403914 0.038680375 -0.05324947 -0.06393168 -0.02247294 0.05764593 0.11427306
0.03634889 0.080274634 -0.009830792 -0.008232727 -0.07391163 0.11755983 0.03166301 0.100278534
0.045188393 -0.023018498 -0.033610296 0.016877327 0.008368645 -0.11795859 -0.026410526 0.006014304
00000000: ef91 013e c824 30bd 46a9 953c 9ffc 20be
00000010: 35d7 013d 7c18 933d 650c d7bd b185 efbd
00000020: 59e9 fa3c 227e c9bb a37a 0b3e 7324 eb3d
00000030: 9b91 0bbc dd6c da3d 017c 7d3d ce06 343d
00000040: c8b5 90bd eead f9bc fbad 883d 0db5 a33d
00000050: f345 873c 55e8 05bd 2d1e ebbd 784e 3b3c
00000060: 7352 75bd c1ed f83c e06a 8ebd 5559 00bd
00000070: 74c9 acbd d335 ce3d dd7b 903d a8f5 d23d
00000080: 5e30 1bbd e5e3 933d e2e2 333b 3479 533b
00000090: 4d2b d03c eeee 9ebd 8aff 003d 25f9 bb3b
000000a0: 214b 613b 6fe5 9c3a 0394 403b c73b 93bd
000000b0: dd6b e63d 95cf d2bd dad9 8cbd b3fc babd
000000c0: d381 d53c 3496 acbd 80b1 95bd 7da1 973d
000000d0: b5f7 803c ce32 e3b9 1ae3 983d 70e9 5b3d
000000e0: 0cf6 553c b61a 61bc 2d16 afbc 48ef 243c
000000f0: 1a5e d2bc 02ac aabc 8177 eebc f4e3 5e3c
00000100: b150 41bc 8a2d 2d3d 73e7 14bd d028 3e3d
00000110: 909d 103e 659a e2bd 0845 8fbd 8c9c 043c
00000120: 33b1 f13c 3bb1 6d3a 6e82 55bb 0bb9 843b
00000130: 5d7e 1f3b 8976 a43c e319 1c3d 5e75 f53d
00000140: 2df8 db3d 8818 9d3c 7d71 57bd af18 5dbd
00000150: 12ac aebc c4ee cebd 7729 ce3c 7505 f5bc
00000160: 7a50 a0bc a4f2 813d 2560 f1bd bcd5 f6bd
00000170: 9754 a13d 82b9 1cbd 8be9 86bd b2cf 1b3d
00000180: e142 9f3c ca49 0c3e 18a7 1c3d 8ce1 9b3d
00000190: 3680 e2bd 2328 89bd a664 133d 9aad 71bd
000001a0: 8df8 d5bd b6e6 673d b116 923d 2e05 97bd
000001b0: 7b6a 03bd ba80 5ebc c6be d43d b80c 32bd
000001c0: 1ba9 9ebd 20ba afbd cfae 4e3b cc5f 81bd
000001d0: 660c 7b3d 37a1 1e3e 380b d23d 27af d2bd
000001e0: 875a e63c a5c8 eabc 3a26 bc3c 7cda 273e
000001f0: 29e8 173c e3c5 523d fe92 53bd 5393 453d
00000200: 72e9 11bd 5053 1fbc df8c 653d 8724 1bbd
00000210: fc68 0abe 1bba 82ba 6a65 bbbd 632b 963b
00000220: 008f 99bd b857 05bd bf9f 523d 4bea 86bd
00000230: e932 7dbd acfd 80bc dd13 c6bc 3448 923d
00000240: 8862 693d 33f9 6cbc 7e03 57bd 3b8f a6bd
00000250: e6de 5c3d cb36 1dbe 086d 17bd a2d0 f4bd
00000260: 4b13 b0bd 908e ecbd 12b4 70bd 5638 cc3d
00000270: 4ef3 89bd 639b 5bbd 3046 763d d4cb 0d3d
00000280: 2191 c33d 10b1 8ebd a521 08be 4801 d93c
00000290: 9bfc f03c 2dbe 273d ceee 63bc e24b 13bd
000002a0: 7a7d 06ba 0fed 0ebd 2bb3 bdbb 4f08 8a3d
000002b0: 5bc3 fd3c a941 443c 4652 83bd 46c6 e1bc
000002c0: 6b47 993d 6972 28bb b296 a53d e39c 923d
000002d0: 61a4 363d a4f2 82bc adcd 443c b303 9a3d
000002e0: a799 b6bb 91aa 65bd b7a5 23bd d8b6 cabd
000002f0: 04bd d5bc ba55 a93d 32c4 93bd d8f2 dcbc
00000300: 0169 8a3d 765a 71bd 57d0 abbd d278 e5bd
00000310: 5e71 003e b74a 033c 8764 23bd 6359 b43d
00000320: 5e03 12be 8fac 3a3d e9d6 993c 5c37 903c
00000330: 766f 9b3d f567 4f3d 3de7 b7bd 7462 1b3e
00000340: 6278 1bbd af24 94bd e90f 49bd da77 af3d
00000350: 0641 f13b 9aeb 81bd 44e3 d1bd 0ed3 a2bc
00000360: 0742 dbbd 8969 62bd b319 a13d c132 7c3d
00000370: 2200 973d 8ed8 fbbb 3de9 0bbe 86a2 763d
00000380: 3c7e e43c 0036 02be 6954 743d ca0e aa3d
00000390: 30d1 9cbd ca18 19bd 06b2 fdbc df3e 553c
000003a0: c21c 6a3d b47b c7bd 506f 1e3d 1e1c 5abd
000003b0: 9dee 82bd 2c19 b8bc 241e 6c3d fe07 ea3d
000003c0: 93e2 143d 0767 a43d 5511 21bc 8fe2 06bc
000003d0: fb5e 97bd 35c3 f03d 13b1 013d d55e cd3d
000003e0: 7717 393d 4a91 bcbc f3aa 09bd 5242 8a3c
000003f0: a41c 093c 4694 f1bd e35a d8bc a313 c53b

fc2.bias f4 [84]
-0.13027278 -0.085236035 0.17508076 -0.21451388 0.07779269 0.11608813 -0.06278195 -0.08330931
0.18142943 -0.10531738 0.008814067 0.21824293 -0.049138058 -0.060193308 0.00092072255 0.15655875
0.30323026 0.32248855 -0.042447478 0.013792208 -0.014245677 0.17248008 -0.09405902 -0.029784039
0.10485774 -0.059552908 -0.061836053 0.13164294 0.020277785 -0.058963045 0.14524063 -0.12654102
-0.06069394 -0.11573928 0.0839641 -0.034917437 -0.09564695 0.03445998 0.19682676 -0.12634803
-0.017670773 0.321745 -0.038357943 0.04166932 -0.051025905 0.12552261 -0.027063204 -0.08084676
-0.002864287 0.070290215 0.31993267 -0.035613414 -0.095133096 0.013799055 0.16716862 0.1529518
0.4833456 -0.033657514 0.15569296 -0.0044091363 -0.05745265 -0.04316405 -0.012569646 0.23391445
0.32376757 0.16476987 0.15944685 -0.053339764 0.14351226 0.09124654 0.024031289 -0.044333603
-0.05106408 0.023980338 -0.09238475 -0.013549495 0.31974542 0.25262967 0.04319362 -0.038409412
-0.04380942 -0.060505863 -0.0704522 -0.07323498
00000000: 3a66 05be 3b90 aebd 5f48 333e 87a9 5bbe
00000010: c651 9f3d 9dbf ed3d d393 80bd 129e aabd
00000020: a3c8 393e a3b0 d7bd e068 103c 137b 5f3e
00000030: fd44 49bd 428d 76bd a55c 713a f050 203e
00000040: ff40 9b3e 381d a53e 68dd 2dbd b7f8 613c
00000050: b366 69bc 9e9e 303e 04a2 c0bd a8fd f3bc
00000060: a8bf d63d c0ed 73bd cd47 7dbd 68cd 063e
00000070: 991d a63c 3c83 71bd f6b9 143e f893 01be
00000080: 359a 78bd b708 edbd 5ff5 ab3d 9605 0fbd
00000090: 8ce2 c3bd e825 0d3d f48c 493e 6161 01be
000000a0: 4cc2 90bc c3bb a43e 381d 1dbd 73ad 2a3d
000000b0: 8a00 51bd 0089 003e a7b3 ddbc fc92 a5bd
000000c0: c3b6 3bbb 51f4 8f3d 37ce a33e 5fdf 11bd
000000d0: 24d5 c2bd 6e15 623c 402e 2b3e 669f 1c3e
000000e0: 1379 f73e 76dc 09bd fa6d 1f3e 847a 90bb
000000f0: 7853 6bbd c9cc 30bd ebf0 4dbc 4587 6f3e
00000100: ddc4 a53e 6fb9 283e 0946 233e cc7a 5abd
00000110: e1f4 123e 77df ba3d 44dd c43c 2797 35bd
00000120: 9228 51bd 6a72 c43c 3734 bdbd b3fe 5dbc
00000130: acb5 a33e ad58 813e cbeb 303d 3053 1dbd
00000140: 8271 33bd ffd4 77bd 3e49 90bd 39fc 95bd

fc3.weight f4 [10, 84]
-0.00968035 0.02652388 -0.07029324 0.25754935 -0.35703057 -0.03895727 0.19301595 0.1757637
-0.10706035 0.0101026725 0.071184024 -0.090432815 0.09130432 -0.0137205785 0.040723413 -0.0953669
0.36474472 -0.046982888 0.08669597 -0.30407205 -0.003525342 0.40642995 0.086211614 -0.062012218
-0.19589257 0.06372953 -0.09124043 -0.09642825 0.19023104 0.08393921 -0.1868806 0.04311178
-0.07977634 -0.012561626 -0.096187 0.18632041 -0.10096825 -0.11713923 0.20053098 0.10124958
0.06315543 -0.09017553 -0.09132246 -0.052731775 -0.11661688 0.049360946 -0.23741055 -0.03339293
0.0526879 -0.09056464 0.10801417 -0.050029468 -0.0046338895 -0.084478915 0.07375895 -0.059340943
0.21422213 0.121611975 -0.1411105 -0.08041089 0.17055531 0.048763152 0.032819003 0.16189514
-0.27000222 -0.060495615 -0.044790536 -0.014886784 -0.11904877 -0.1292163 -0.0014038628 -0.025034191
0.021711575 0.023873873 -0.01411197 0.08229463 0.31900647 0.118022 0.07375566 -0.10390328
-0.049285214 -0.031854365 0.0031870862 0.004893048 0.3148403 0.0887303 0.03275692 0.07975837
-0.14422466 0.0231314 -0.030656034 0.2345406 -0.08568195 0.04635141 -0.18164174 -0.15799956
0.13514476 0.06348486 -0.07514146 -0.4282113 -0.031831015 0.01452212 -0.08479631 0.14578876
-0.08543183 -0.1699021 -0.067563415 -0.12537763 -0.07788553 -0.0720174 0.05468315 -0.2249377
-0.056535095 0.040751062 -0.095402665 0.3072107 -0.06574236 0.01901866 -0.053000946 -0.014908473
0.059407964 0.0006076717 0.16913274 -0.022402639 0.2902082 -0.16429338 0.06446859 0.056772687
0.10790637 0.034343403 0.019075217 0.06533775 0.040483285 0.081176534 -0.3143255 0.06765966
0.24389857 0.034963176 -0.22899361 0.11546286 0.06264557 -0.04009669 -0.3727822 0.23973678
0.089070335 -0.052547544 0.19849245 -0.13247989 -0.09065305 0.11704611 0.10385495 0.06703477
-0.12270355 -0.18263125 -0.028991152 0.08486361 -0.07031226 -0.07395192 -0.091148406 -0.042965524
0.37727246 -0.087821305 0.03222451 0.07744386 -0.056401696 0.052501854 0.05532299 -0.08678177
-0.061513606 -0.011539639 0.19417514 -0.029929617 0.033951487 -0.05657225 0.0017741994 -0.031557105
0.041027494 0.022997776 0.01450154 -0.0528993 0.09044571 0.07970028 0.21426705 0.17705354
0.25157052 0.17186314 -0.06612319 -0.18148828 0.063300535 0.02620563 -0.18173367 0.104507595
0.048217732 -0.01958196 0.0571853 -0.093632616 0.27531984 -0.070985615 -0.046973825 -0.013522972
0.116405696 -0.005212764 0.039717846 0.13153787 0.08085696 -0.12934463 -0.13546975 -0.20144743
-0.060204346 0.07407122 -0.12569271 0.11677621 0.044931516 -0.010585908 0.23137923 -0.05084358
0.09661744 -0.07039187 0.24508178 -0.08354718 0.043307412 0.2274435 -0.109929785 -0.21316211
-0.07230897 0.052900933 0.14895207 -0.051376656 -0.12088904 0.009147733 -0.24473421 0.07015054
0.11016188 0.06600362 -0.15841265 0.009411906 0.003482045 0.21784027 0.025636377 0.06089698
0.036630314 -0.05107983 0.09141993 -0.064590864 -0.09822227 0.24642134 -0.017593717 -0.010785883
-0.034718387 -0.059687264 -0.08168523 0.07018168 -0.1443947 -0.07399962 -0.07608211 -0.022846952
00000000: 559a 1ebc 9c48 d93c e7f5 8fbd 82dd 833e
00000010: b6cc b6be a991 1fbd f9a5 453e 66fb 333e
00000020: 7542 dbbd ae85 253c eec8 913d d734 b9bd
00000030: c2fd ba3d 47cc 60bc 98cd 263d b94f c3bd
00000040: d2bf ba3e 2171 40bd a88d b13d 55af 9bbe
00000050: 6d09 67bb 9617 d03e b78f b03d 8600 7ebd
00000060: 1098 48be a184 823d 43dc babd 2d7c c5bd
00000070: edcb 423e 52e8 ab3d a15d 3fbe fa95 303d
00000080: c761 a3bd 47cf 4dbc b1fd c4bd c7ca 3e3e
00000090: 71c8 cebd b1e6 efbd fe57 4d3e f15b cf3d
000000a0: a257 813d f3ad b8bd 4507 bbbd 46fd 57bd
000000b0: d5d4 eebd b42e 4a3d c01b 73be 06c7 08bd
000000c0: 44cf 573d f479 b9bd 8836 dd3d b3eb 4cbd
000000d0: e2d7 97bb 4803 adbd ef0e 973d 7d0f 73bd
000000e0: 0c5d 5b3e b30f f93d 457f 10be 77ae a4bd
000000f0: 0da6 2e3e dfbb 473d 386d 063d d7c7 253e
00000100: bb3d 8abe 40ca 77bd 4876 37bd b3e7 73bc
00000110: d7cf f3bd 4751 04be d201 b8ba 8114 cdbc
00000120: 79dc b13c 2493 c33c e435 67bc 168a a83d
00000130: d154 a33e 85b5 f13d 350d 973d 3ecb d4bd
00000140: 4bdf 49bd b979 02bd 6fde 503b dd55 a03b
00000150: bf32 a13e 3bb8 b53d 1f2c 063d 5b58 a33d
00000160: a1af 13be 107e bd3c 5d22 fbbc 692b 703e
00000170: 057a afbd fada 3d3d 4b00 3abe a3ca 21be
00000180: 6363 0a3e 5a04 823d c4e3 99bd 833e dbbe
00000190: 3d61 02bd 30ee 6d3c b0a9 adbd a649 153e
000001a0: e2f6 aebd d1fa 2dbe b05e 8abd fe62 00be
000001b0: 7382 9fbd dc7d 93bd 70fb 5f3d 1256 66be
000001c0: 5891 67bd 96ea 263d 7962 c3bd b94a 9d3e
000001d0: eea3 86bd 05cd 9b3c 8517 59bd ab42 74bc
000001e0: c455 733d 284c 1f3a 2231 2d3e bd85 b7bc
000001f0: 2b96 943e 863c 28be 1c08 843d 7a8a 683d
00000200: 04fe dc3d abab 0c3d a143 9c3c cccf 853d
00000210: cdd1 253d e23f a63d 46ef a0be 2691 8a3d
00000220: 8cc0 793e 8c35 0f3d 4d7d 6abe cb77 ec3d
00000230: 524c 803d 6d3c 24bd 4fdd bebe 8f7d 753e
00000240: 826a b63d 183c 57bd 9b41 4b3e cfa8 07be
00000250: 4ea8 b9bd dfb5 ef3d e7b1 d43d 8749 893d
00000260: 004c fbbd b003 3bbe da7e edbc f9cc ad3d
00000270: e0ff 8fbd 1b74 97bd 04ac babd 9efc 2fbd
00000280: db29 c13e a8db b3bd d9fd 033d e39a 9e3d
00000290: 7705 67bd 2f0c 573d 5c9a 623d a4ba b1bd
000002a0: b1f5 7bbd c110 3dbc d9d5 463e f52e f5bc
000002b0: b710 0b3d 4eb8 67bd 418c e83a 0642 01bd
000002c0: 720c 283d d565 bc3c de97 6d3c f0ac 58bd
000002d0: 9a3b b93d e739 a33d d268 5b3e 864d 353e
000002e0: dacd 803e e4fc 2f3e 986b 87bd 10d8 39be
000002f0: b6a3 813d 30ad d63c 6418 3abe 1408 d63d
00000300: f57f 453d 596a a0bc 223b 6a3d 75c2 bfbd
00000310: b9f6 8c3e e860 91bd a067 40bd 758f 5dbc
00000320: 1c66 ee3d d5cf aabb 2eaf 223d ddb1 063e
00000330: 5598 a53d eb72 04be 95b8 0abe 3c48 4ebe
00000340: d598 76bd a7b2 973d 97b5 00be 5e28 ef3d
00000350: 1c0a 383d 8470 2dbc adee 6c3e 5c41 50bd
00000360: 5ddf c53d 9d29 90bd b8f6 7a3e c91a abbd
00000370: 1d63 313d f3e6 683e de22 e1bd 2b47 5abe
00000380: ba16 94bd a6ae 583d e486 183e 5470 52bd
00000390: ac94 f7bd 60e0 153c 9b9b 7abe 16ab 8f3d
000003a0: 8d9c e13d e82c 873d ed36 22be 6534 1a3c
000003b0: 0533 643b 8511 5f3e 6103 d23c 1d6f 793d
000003c0: ab09 163d 1539 51bd 5f3a bb3d 3748 84bd
000003d0: c228 c9bd e055 7c3e b320 90bc 46b7 30bc
000003e0: de34 0ebd a27a 74bd 964a a7bd 6abb 8f3d
000003f0: 34dc 13be 1d8d 97bd f0d0 9bbd 8829 bbbc

fc3.bias f4 [10]
-0.072924115 -0.5784974 0.21866514 0.17907973 0.4060365 -0.26654518 0.039576996 -0.36754128
0.55988663 -0.2509458
00000000: 3d59 95bd 6818 14bf c1e9 5f3e ad60 373e
00000010: 04e4 cf3e 9c78 88be 7d1b 223d 5f2e bcbe
00000020: bb54 0f3f f87b 80be
